2023-03-26 21:55:23.848623: I tensorflow/core/platform/cpu_feature_guard.cc:193] This TensorFlow binary is optimized with oneAPI Deep Neural Network Library (oneDNN) to use the following CPU instructions in performance-critical operations:  AVX AVX2
To enable them in other operations, rebuild TensorFlow with the appropriate compiler flags.
Model: "sequential"
_________________________________________________________________
 Layer (type)                Output Shape              Param #   
=================================================================
 conv2d (Conv2D)             (None, 28, 28, 64)        640       
                                                                 
 max_pooling2d (MaxPooling2D  (None, 14, 14, 64)       0         
 )                                                               
                                                                 
 conv2d_1 (Conv2D)           (None, 14, 14, 64)        36928     
                                                                 
 max_pooling2d_1 (MaxPooling  (None, 7, 7, 64)         0         
 2D)                                                             
                                                                 
 flatten (Flatten)           (None, 3136)              0         
                                                                 
 dense (Dense)               (None, 128)               401536    
                                                                 
 dense_1 (Dense)             (None, 128)               16512     
                                                                 
 dense_2 (Dense)             (None, 10)                1290      
                                                                 
=================================================================
Total params: 456,906
Trainable params: 456,906
Non-trainable params: 0
_________________________________________________________________
None
Epoch 1/15
  1/469 [..............................] - ETA: 6:37 - loss: 2.6199 - accuracy: 0.0156
…
------------------------------------------
WARNING:absl:Found untraced functions such as _jit_compiled_convolution_op, _jit_compiled_convolution_op, _update_step_xla while saving (showing 3 of 3). These functions will not be directly callable after loading.
Model: "model"
_________________________________________________________________
 Layer (type)                Output Shape              Param #   
=================================================================
 conv2d_input (InputLayer)   [(None, 28, 28, 1)]       0         
                                                                 
 conv2d (Conv2D)             (None, 28, 28, 64)        640       
                                                                 
 max_pooling2d (MaxPooling2D  (None, 14, 14, 64)       0         
 )                                                               
                                                                 
 conv2d_1 (Conv2D)           (None, 14, 14, 64)        36928     
                                                                 
 max_pooling2d_1 (MaxPooling  (None, 7, 7, 64)         0         
 2D)                                                             
                                                                 
 flatten (Flatten)           (None, 3136)              0         
                                                                 
 dense (Dense)               (None, 128)               401536    
                                                                 
 dropout (Dropout)           (None, 128)               0         
                                                                 
 dense_1 (Dense)             (None, 128)               16512     
                                                                 
 dense_2 (Dense)             (None, 10)                1290      
                                                                 
=================================================================
Total params: 456,906
Trainable params: 456,906
Non-trainable params: 0
_________________________________________________________________
None
Epoch 1/15
  1/469 [..............................] - ETA: 6:31 - loss: 0.4725 - accuracy: 0.8750
…
