2023-03-26 22:29:32.993773: I tensorflow/core/platform/cpu_feature_guard.cc:193] This TensorFlow binary is optimized with oneAPI Deep Neural Network Library (oneDNN) to use the following CPU instructions in performance-critical operations:  AVX AVX2
To enable them in other operations, rebuild TensorFlow with the appropriate compiler flags.
Model: "sequential"
_________________________________________________________________
 Layer (type)                Output Shape              Param #   
=================================================================
 conv2d (Conv2D)             (None, 28, 28, 64)        640       
                                                                 
 max_pooling2d (MaxPooling2D  (None, 14, 14, 64)       0         
 )                                                               
                                                                 
 conv2d_1 (Conv2D)           (None, 14, 14, 64)        36928     
                                                                 
 max_pooling2d_1 (MaxPooling  (None, 7, 7, 64)         0         
 2D)                                                             
                                                                 
 flatten (Flatten)           (None, 3136)              0         
                                                                 
 dense (Dense)               (None, 128)               401536    
                                                                 
 dense_1 (Dense)             (None, 128)               16512     
                                                                 
 dense_2 (Dense)             (None, 10)                1290      
                                                                 
=================================================================
Total params: 456,906
Trainable params: 456,906
Non-trainable params: 0
_________________________________________________________________
None

Search: Running Trial #1

Value             |Best Value So Far |Hyperparameter
0.001             |?                 |learning_rate
2                 |?                 |tuner/epochs
0                 |?                 |tuner/initial_epoch
2                 |?                 |tuner/bracket
0                 |?                 |tuner/round

Model: "sequential"
_________________________________________________________________
 Layer (type)                Output Shape              Param #   
=================================================================
 conv2d (Conv2D)             (None, 28, 28, 64)        640       
                                                                 
 max_pooling2d (MaxPooling2D  (None, 14, 14, 64)       0         
 )                                                               
                                                                 
 conv2d_1 (Conv2D)           (None, 14, 14, 64)        36928     
                                                                 
 max_pooling2d_1 (MaxPooling  (None, 7, 7, 64)         0         
 2D)                                                             
                                                                 
 flatten (Flatten)           (None, 3136)              0         
                                                                 
 dense (Dense)               (None, 128)               401536    
                                                                 
 dense_1 (Dense)             (None, 128)               16512     
                                                                 
 dense_2 (Dense)             (None, 10)                1290      
                                                                 
=================================================================
Total params: 456,906
Trainable params: 456,906
Non-trainable params: 0
_________________________________________________________________
None
Epoch 1/2
   1/1500 [..............................] - ETA: 20:17 - loss: 2.6855 - accuracy: 0.1562
…
Total elapsed time: 00h 01m 20s

Search: Running Trial #2

Value             |Best Value So Far |Hyperparameter
0.001             |0.001             |learning_rate
2                 |2                 |tuner/epochs
0                 |0                 |tuner/initial_epoch
2                 |2                 |tuner/bracket
0                 |0                 |tuner/round

Model: "sequential"
_________________________________________________________________
 Layer (type)                Output Shape              Param #   
=================================================================
 conv2d (Conv2D)             (None, 28, 28, 64)        640       
                                                                 
 max_pooling2d (MaxPooling2D  (None, 14, 14, 64)       0         
 )                                                               
                                                                 
 conv2d_1 (Conv2D)           (None, 14, 14, 64)        36928     
                                                                 
 max_pooling2d_1 (MaxPooling  (None, 7, 7, 64)         0         
 2D)                                                             
                                                                 
 flatten (Flatten)           (None, 3136)              0         
                                                                 
 dense (Dense)               (None, 128)               401536    
                                                                 
 dense_1 (Dense)             (None, 128)               16512     
                                                                 
 dense_2 (Dense)             (None, 10)                1290      
                                                                 
=================================================================
Total params: 456,906
Trainable params: 456,906
Non-trainable params: 0
_________________________________________________________________
None
Epoch 1/2
   1/1500 [..............................] - ETA: 18:16 - loss: 2.4792 - accuracy: 0.1562
…
