…
   macro avg       0.89      0.88      0.88     10000
weighted avg       0.89      0.88      0.88     10000

Accuracy: 0.8844
Precision: 0.8855481894836332
Recall: 0.8844
F1: 0.8834767393615588
------------------------------------------
Model: "model_2"
_________________________________________________________________
 Layer (type)                Output Shape              Param #   
=================================================================
 conv2d_input (InputLayer)   [(None, 28, 28, 1)]       0         
                                                                 
 conv2d (Conv2D)             (None, 28, 28, 64)        640       
                                                                 
 max_pooling2d (MaxPooling2D  (None, 14, 14, 64)       0         
 )                                                               
                                                                 
 conv2d_1 (Conv2D)           (None, 14, 14, 64)        36928     
                                                                 
 max_pooling2d_1 (MaxPooling  (None, 7, 7, 64)         0         
 2D)                                                             
                                                                 
 flatten (Flatten)           (None, 3136)              0         
                                                                 
 dense (Dense)               (None, 128)               401536    
                                                                 
 dropout (Dropout)           (None, 128)               0         
                                                                 
 dense_1 (Dense)             (None, 128)               16512     
                                                                 
 dense_2 (Dense)             (None, 10)                1290      
                                                                 
=================================================================
Total params: 456,906
Trainable params: 456,906
Non-trainable params: 0
_________________________________________________________________
None
  1/313 [..............................] - ETA: 21s  9/313 [.....
…
