2023-03-26 00:14:55.925920: I tensorflow/core/platform/cpu_feature_guard.cc:193] This TensorFlow binary is optimized with oneAPI Deep Neural Network Library (oneDNN) to use the following CPU instructions in performance-critical operations:  AVX AVX2
To enable them in other operations, rebuild TensorFlow with the appropriate compiler flags.
Model: "sequential"
_________________________________________________________________
 Layer (type)                Output Shape              Param #   
=================================================================
 conv2d (Conv2D)             (None, 28, 28, 64)        640       
                                                                 
 max_pooling2d (MaxPooling2D  (None, 14, 14, 64)       0         
 )                                                               
                                                                 
 conv2d_1 (Conv2D)           (None, 14, 14, 64)        36928     
                                                                 
 max_pooling2d_1 (MaxPooling  (None, 7, 7, 64)         0         
 2D)                                                             
                                                                 
 flatten (Flatten)           (None, 3136)              0         
                                                                 
 dense (Dense)               (None, 128)               401536    
                                                                 
 dense_1 (Dense)             (None, 128)               16512     
                                                                 
 dense_2 (Dense)             (None, 10)                1290      
                                                                 
=================================================================
Total params: 456,906
Trainable params: 456,906
Non-trainable params: 0
_________________________________________________________________
None
Epoch 1/15
 1/94 [..............................] - ETA: 1:21 - loss: 2.9426 - accuracy: 0.1016
…
weighted avg       0.89      0.88      0.88     10000

Accuracy: 0.8844
Precision: 0.8855481894836332
Recall: 0.8844
F1: 0.8834767393615588
------------------------------------------
WARNING:absl:Found untraced functions such as _jit_compiled_convolution_op, _jit_compiled_convolution_op, _update_step_xla while saving (showing 3 of 3). These functions will not be directly callable after loading.
Model: "sequential_1"
_________________________________________________________________
 Layer (type)                Output Shape              Param #   
=================================================================
 conv2d_2 (Conv2D)           (None, 28, 28, 64)        640       
                                                                 
 max_pooling2d_2 (MaxPooling  (None, 14, 14, 64)       0         
 2D)                                                             
                                                                 
 conv2d_3 (Conv2D)           (None, 14, 14, 64)        36928     
                                                                 
 max_pooling2d_3 (MaxPooling  (None, 7, 7, 64)         0         
 2D)                                                             
                                                                 
 flatten_1 (Flatten)         (None, 3136)              0         
                                                                 
 dense_3 (Dense)             (None, 128)               401536    
                                                                 
 dense_4 (Dense)             (None, 128)               16512     
                                                                 
 dense_5 (Dense)             (None, 10)                1290      
                                                                 
=================================================================
Total params: 456,906
Trainable params: 456,906
Non-trainable params: 0
_________________________________________________________________
None
Model: "sequential_1"
_________________________________________________________________
 Layer (type)                Output Shape              Param #   
=================================================================
 conv2d_2 (Conv2D)           (None, 28, 28, 64)        640       
                                                                 
 max_pooling2d_2 (MaxPooling  (None, 14, 14, 64)       0         
 2D)                                                             
                                                                 
 conv2d_3 (Conv2D)           (None, 14, 14, 64)        36928     
                                                                 
 max_pooling2d_3 (MaxPooling  (None, 7, 7, 64)         0         
 2D)                                                             
                                                                 
 flatten_1 (Flatten)         (None, 3136)              0         
                                                                 
 dense_3 (Dense)             (None, 128)               401536    
                                                                 
 dense_4 (Dense)             (None, 128)               16512     
                                                                 
 dense_5 (Dense)             (None, 10)                1290      
                                                                 
=================================================================
Total params: 456,906
Trainable params: 456,906
Non-trainable params: 0
_________________________________________________________________
None
Epoch 1/15
 1/94 [..............................] - ETA: 1:15 - loss: 2.5631 - accuracy: 0.0234
…
------------------------------------------
WARNING:absl:Found untraced functions such as _jit_compiled_convolution_op, _jit_compiled_convolution_op, _update_step_xla while saving (showing 3 of 3). These functions will not be directly callable after loading.
Model: "model"
_________________________________________________________________
 Layer (type)                Output Shape              Param #   
=================================================================
 conv2d_input (InputLayer)   [(None, 28, 28, 1)]       0         
                                                                 
 conv2d (Conv2D)             (None, 28, 28, 64)        640       
                                                                 
 batch_normalization (BatchN  (None, 28, 28, 64)       256       
 ormalization)                                                   
                                                                 
 max_pooling2d (MaxPooling2D  (None, 14, 14, 64)       0         
 )                                                               
                                                                 
 conv2d_1 (Conv2D)           (None, 14, 14, 64)        36928     
                                                                 
 max_pooling2d_1 (MaxPooling  (None, 7, 7, 64)         0         
 2D)                                                             
                                                                 
 flatten (Flatten)           (None, 3136)              0         
                                                                 
 dense (Dense)               (None, 128)               401536    
                                                                 
 dense_1 (Dense)             (None, 128)               16512     
                                                                 
 dense_2 (Dense)             (None, 10)                1290      
                                                                 
=================================================================
Total params: 457,162
Trainable params: 457,034
Non-trainable params: 128
_________________________________________________________________
None
Epoch 1/15
 1/94 [..............................] - ETA: 1:31 - loss: 2.4305 - accuracy: 0.8906
…
------------------------------------------
WARNING:absl:Found untraced functions such as _jit_compiled_convolution_op, _jit_compiled_convolution_op, _update_step_xla while saving (showing 3 of 3). These functions will not be directly callable after loading.
Model: "model_2"
_________________________________________________________________
 Layer (type)                Output Shape              Param #   
=================================================================
 conv2d_input (InputLayer)   [(None, 28, 28, 1)]       0         
                                                                 
 conv2d (Conv2D)             (None, 28, 28, 64)        640       
                                                                 
 max_pooling2d (MaxPooling2D  (None, 14, 14, 64)       0         
 )                                                               
                                                                 
 conv2d_1 (Conv2D)           (None, 14, 14, 64)        36928     
                                                                 
 max_pooling2d_1 (MaxPooling  (None, 7, 7, 64)         0         
 2D)                                                             
                                                                 
 flatten (Flatten)           (None, 3136)              0         
                                                                 
 dense (Dense)               (None, 128)               401536    
                                                                 
 dropout (Dropout)           (None, 128)               0         
                                                                 
 dense_1 (Dense)             (None, 128)               16512     
                                                                 
 dense_2 (Dense)             (None, 10)                1290      
                                                                 
=================================================================
Total params: 456,906
Trainable params: 456,906
Non-trainable params: 0
_________________________________________________________________
None
Epoch 1/15
 1/94 [..............................] - ETA: 1:16 - loss: 0.8189 - accuracy: 0.7812
…
