2023-03-26 20:34:53.927509: I tensorflow/core/platform/cpu_feature_guard.cc:193] This TensorFlow binary is optimized with oneAPI Deep Neural Network Library (oneDNN) to use the following CPU instructions in performance-critical operations:  AVX AVX2
To enable them in other operations, rebuild TensorFlow with the appropriate compiler flags.
Model: "sequential"
_________________________________________________________________
 Layer (type)                Output Shape              Param #   
=================================================================
 conv2d (Conv2D)             (None, 28, 28, 64)        640       
                                                                 
 max_pooling2d (MaxPooling2D  (None, 14, 14, 64)       0         
 )                                                               
                                                                 
 conv2d_1 (Conv2D)           (None, 14, 14, 64)        36928     
                                                                 
 max_pooling2d_1 (MaxPooling  (None, 7, 7, 64)         0         
 2D)                                                             
                                                                 
 flatten (Flatten)           (None, 3136)              0         
                                                                 
 dense (Dense)               (None, 128)               401536    
                                                                 
 dense_1 (Dense)             (None, 128)               16512     
                                                                 
 dense_2 (Dense)             (None, 10)                1290      
                                                                 
=================================================================
Total params: 456,906
Trainable params: 456,906
Non-trainable params: 0
_________________________________________________________________
None
Model: "sequential_1"
_________________________________________________________________
 Layer (type)                Output Shape              Param #   
=================================================================
 conv2d_2 (Conv2D)           (None, 28, 28, 64)        640       
                                                                 
 max_pooling2d_2 (MaxPooling  (None, 14, 14, 64)       0         
 2D)                                                             
                                                                 
 conv2d_3 (Conv2D)           (None, 14, 14, 64)        36928     
                                                                 
 max_pooling2d_3 (MaxPooling  (None, 7, 7, 64)         0         
 2D)                                                             
                                                                 
 flatten_1 (Flatten)         (None, 3136)              0         
                                                                 
 dense_3 (Dense)             (None, 128)               401536    
                                                                 
 dense_4 (Dense)             (None, 128)               16512     
                                                                 
 dense_5 (Dense)             (None, 10)                1290      
                                                                 
=================================================================
Total params: 456,906
Trainable params: 456,906
Non-trainable params: 0
_________________________________________________________________
None
Model: "model"
_________________________________________________________________
 Layer (type)                Output Shape              Param #   
=================================================================
 conv2d_2_input (InputLayer)  [(None, 28, 28, 1)]      0         
                                                                 
 conv2d_2 (Conv2D)           (None, 28, 28, 64)        640       
                                                                 
 batch_normalization (BatchN  (None, 28, 28, 64)       256       
 ormalization)                                                   
                                                                 
 max_pooling2d_2 (MaxPooling  (None, 14, 14, 64)       0         
 2D)                                                             
                                                                 
 conv2d_3 (Conv2D)           (None, 14, 14, 64)        36928     
                                                                 
 max_pooling2d_3 (MaxPooling  (None, 7, 7, 64)         0         
 2D)                                                             
                                                                 
 flatten_1 (Flatten)         (None, 3136)              0         
                                                                 
 dense_3 (Dense)             (None, 128)               401536    
                                                                 
 dense_4 (Dense)             (None, 128)               16512     
                                                                 
 dense_5 (Dense)             (None, 10)                1290      
                                                                 
=================================================================
Total params: 457,162
Trainable params: 457,034
Non-trainable params: 128
_________________________________________________________________
None
Epoch 1/15
 1/94 [..............................] - ETA: 1:45 - loss: 3.3926 - accuracy: 0.1016
…
