2023-03-26 21:10:24.977404: I tensorflow/core/platform/cpu_feature_guard.cc:193] This TensorFlow binary is optimized with oneAPI Deep Neural Network Library (oneDNN) to use the following CPU instructions in performance-critical operations:  AVX AVX2
To enable them in other operations, rebuild TensorFlow with the appropriate compiler flags.
Model: "sequential"
_________________________________________________________________
 Layer (type)                Output Shape              Param #   
=================================================================
 conv2d (Conv2D)             (None, 28, 28, 64)        640       
                                                                 
 max_pooling2d (MaxPooling2D  (None, 14, 14, 64)       0         
 )                                                               
                                                                 
 conv2d_1 (Conv2D)           (None, 14, 14, 64)        36928     
                                                                 
 max_pooling2d_1 (MaxPooling  (None, 7, 7, 64)         0         
 2D)                                                             
                                                                 
 flatten (Flatten)           (None, 3136)              0         
                                                                 
 dense (Dense)               (None, 128)               401536    
                                                                 
 dense_1 (Dense)             (None, 128)               16512     
                                                                 
 dense_2 (Dense)             (None, 10)                1290      
                                                                 
=================================================================
Total params: 456,906
Trainable params: 456,906
Non-trainable params: 0
_________________________________________________________________
None
Epoch 1/15
 1/94 [..............................] - ETA: 1:22 - loss: 2.5183 - accuracy: 0.0703
…
weighted avg       0.89      0.89      0.89     10000

Accuracy: 0.8914
Precision: 0.8914372756062908
Recall: 0.8914
F1: 0.8911121724907668
------------------------------------------
WARNING:absl:Found untraced functions such as _jit_compiled_convolution_op, _jit_compiled_convolution_op, _update_step_xla while saving (showing 3 of 3). These functions will not be directly callable after loading.
Model: "sequential_1"
_________________________________________________________________
 Layer (type)                Output Shape              Param #   
=================================================================
 conv2d_2 (Conv2D)           (None, 28, 28, 64)        640       
                                                                 
 max_pooling2d_2 (MaxPooling  (None, 14, 14, 64)       0         
 2D)                                                             
                                                                 
 conv2d_3 (Conv2D)           (None, 14, 14, 64)        36928     
                                                                 
 max_pooling2d_3 (MaxPooling  (None, 7, 7, 64)         0         
 2D)                                                             
                                                                 
 flatten_1 (Flatten)         (None, 3136)              0         
                                                                 
 dense_3 (Dense)             (None, 128)               401536    
                                                                 
 dense_4 (Dense)             (None, 128)               16512     
                                                                 
 dense_5 (Dense)             (None, 10)                1290      
                                                                 
=================================================================
Total params: 456,906
Trainable params: 456,906
Non-trainable params: 0
_________________________________________________________________
None
Model: "sequential_1"
_________________________________________________________________
 Layer (type)                Output Shape              Param #   
=================================================================
 conv2d_2 (Conv2D)           (None, 28, 28, 64)        640       
                                                                 
 max_pooling2d_2 (MaxPooling  (None, 14, 14, 64)       0         
 2D)                                                             
                                                                 
 conv2d_3 (Conv2D)           (None, 14, 14, 64)        36928     
                                                                 
 max_pooling2d_3 (MaxPooling  (None, 7, 7, 64)         0         
 2D)                                                             
                                                                 
 flatten_1 (Flatten)         (None, 3136)              0         
                                                                 
 dense_3 (Dense)             (None, 128)               401536    
                                                                 
 dense_4 (Dense)             (None, 128)               16512     
                                                                 
 dense_5 (Dense)             (None, 10)                1290      
                                                                 
=================================================================
Total params: 456,906
Trainable params: 456,906
Non-trainable params: 0
_________________________________________________________________
None
Epoch 1/15
 1/94 [..............................] - ETA: 1:25 - loss: 2.8526 - accuracy: 0.0156
…
weighted avg       0.89      0.89      0.89     10000

Accuracy: 0.8932
Precision: 0.8941894333438609
Recall: 0.8932
F1: 0.8935383208816798
------------------------------------------
WARNING:absl:Found untraced functions such as _jit_compiled_convolution_op, _jit_compiled_convolution_op, _update_step_xla while saving (showing 3 of 3). These functions will not be directly callable after loading.
Model: "sequential_2"
_________________________________________________________________
 Layer (type)                Output Shape              Param #   
=================================================================
 conv2d_4 (Conv2D)           (None, 28, 28, 64)        640       
                                                                 
 max_pooling2d_4 (MaxPooling  (None, 14, 14, 64)       0         
 2D)                                                             
                                                                 
 conv2d_5 (Conv2D)           (None, 14, 14, 64)        36928     
                                                                 
 max_pooling2d_5 (MaxPooling  (None, 7, 7, 64)         0         
 2D)                                                             
                                                                 
 flatten_2 (Flatten)         (None, 3136)              0         
                                                                 
 dense_6 (Dense)             (None, 128)               401536    
                                                                 
 dense_7 (Dense)             (None, 128)               16512     
                                                                 
 dense_8 (Dense)             (None, 10)                1290      
                                                                 
=================================================================
Total params: 456,906
Trainable params: 456,906
Non-trainable params: 0
_________________________________________________________________
None
Model: "model"
_________________________________________________________________
 Layer (type)                Output Shape              Param #   
=================================================================
 conv2d_4_input (InputLayer)  [(None, 28, 28, 1)]      0         
                                                                 
 conv2d_4 (Conv2D)           (None, 28, 28, 64)        640       
                                                                 
 batch_normalization (BatchN  (None, 28, 28, 64)       256       
 ormalization)                                                   
                                                                 
 max_pooling2d_4 (MaxPooling  (None, 14, 14, 64)       0         
 2D)                                                             
                                                                 
 conv2d_5 (Conv2D)           (None, 14, 14, 64)        36928     
                                                                 
 max_pooling2d_5 (MaxPooling  (None, 7, 7, 64)         0         
 2D)                                                             
                                                                 
 flatten_2 (Flatten)         (None, 3136)              0         
                                                                 
 dense_6 (Dense)             (None, 128)               401536    
                                                                 
 dense_7 (Dense)             (None, 128)               16512     
                                                                 
 dense_8 (Dense)             (None, 10)                1290      
                                                                 
=================================================================
Total params: 457,162
Trainable params: 457,034
Non-trainable params: 128
_________________________________________________________________
None
Epoch 1/15
 1/94 [..............................] - ETA: 1:30 - loss: 4.0219 - accuracy: 0.0859
…
------------------------------------------
WARNING:absl:Found untraced functions such as _jit_compiled_convolution_op, _jit_compiled_convolution_op, _update_step_xla while saving (showing 3 of 3). These functions will not be directly callable after loading.
Model: "model_2"
_________________________________________________________________
 Layer (type)                Output Shape              Param #   
=================================================================
 conv2d_input (InputLayer)   [(None, 28, 28, 1)]       0         
                                                                 
 conv2d (Conv2D)             (None, 28, 28, 64)        640       
                                                                 
 max_pooling2d (MaxPooling2D  (None, 14, 14, 64)       0         
 )                                                               
                                                                 
 conv2d_1 (Conv2D)           (None, 14, 14, 64)        36928     
                                                                 
 max_pooling2d_1 (MaxPooling  (None, 7, 7, 64)         0         
 2D)                                                             
                                                                 
 flatten (Flatten)           (None, 3136)              0         
                                                                 
 dense (Dense)               (None, 128)               401536    
                                                                 
 dropout (Dropout)           (None, 128)               0         
                                                                 
 dense_1 (Dense)             (None, 128)               16512     
                                                                 
 dense_2 (Dense)             (None, 10)                1290      
                                                                 
=================================================================
Total params: 456,906
Trainable params: 456,906
Non-trainable params: 0
_________________________________________________________________
None
Epoch 1/15
 1/94 [..............................] - ETA: 1:25 - loss: 0.9274 - accuracy: 0.7891
…
